converted_model.tflite (tflite, 2208 bytes, 2 tensors)

sequential_57/dense_61/BiasAdd/ReadVariableOp f4 [2]
00000000: 440a 92ba 440a 923a
-0.0011141975 0.0011141975

sequential_57/dense_61/MatMul f4 [2, 120]
00000000: 5f05 48be 026a ba3d 3bac d73d c2b1 91bd
00000010: 3bb7 403d cbc6 063e fb6b 2a3e 3b25 c93d
00000020: 1af7 da3d 6f76 7b3d 3854 0dbe fe9c 273e
00000030: 9864 ce3d cd1b 91bd b612 3bbe c53b b4bc
00000040: fcec f63c 3517 83bd ac1f 9ebd d760 34be
00000050: 1df5 4cb8 89c7 fcbd 17b0 8bbd 1819 11be
00000060: d09f 9ebd 2fdd 6abe 45ab 13be 57b1 b63b
00000070: 642d 173d 5ad9 3bbe 854d 5abd 58e6 263e
00000080: acd2 8c3d 8132 12be ed14 c73d 069c 36be
00000090: c3cc 3ebe 3375 fabd d8ca 4b3e 5e0d 00be
000000a0: fdb3 473e db44 233e 0b28 9cbd ff95 433e
000000b0: 441f 543e ed55 a3bc 7fa7 bdbc b844 bcbd
000000c0: 5867 d6bd c391 c6bd 8bf9 20be be61 023e
000000d0: 6d8b f43d 1b62 103d 3ee3 70bb 2b38 39be
000000e0: 96af 30be dbbc 21bc 9e41 12be a44e b1bd
000000f0: 0baa e03d b6b7 4ebe b9bd 523d ce79 92bd
00000100: 42bb 04be 4733 94bc c40f 66be 5224 093e
00000110: e99f 293e 9a6b 00bb 99e9 37bc da33 21bd
00000120: f003 073e cae1 423e 2194 bc3d 09e1 11be
00000130: 59e3 20be 2b60 73be 1b3d 13be 7939 03be
00000140: 5bcc 61bd 1163 d5b7 4280 86bd 03ef 77bd
00000150: 2cbb 893d e5eb 3e3d ead0 1ebe 914a b0bd
00000160: a62b 2e3e 82e3 67bd 1597 ebbd 9327 33be
00000170: 4dc8 543e c83f 0cbc 32bd 3b3e 557b 8bbd
00000180: 577b fe3d a230 1c3e 89af 58bd c3b6 5a3c
00000190: 0f6d ee3d 58cb c93d df03 82bd 8c27 053e
000001a0: b6fb aa3d f460 7dbc 895f 673c 7125 ec3d
000001b0: 25ee 12bd 5539 1f3e c556 c9bd c8c1 353e
000001c0: 82a8 ec3d 1239 1cbe acd4 f0bd 58b7 5b3d
000001d0: 2f7a 42bd b6e3 0d3d 5d12 57be 0e34 963d
000001e0: ae84 03be cdbe 1a3e c67a a4bd 12d3 d5bd
000001f0: ad7e 1b3e b870 453e e619 683d 99fe e03c
00000200: 72ad 5bbe 2a32 d63d a824 9bbc 4df1 00be
00000210: f140 07be 1d53 4b3e f34d c43d 4c15 1d3d
00000220: 67f1 14be 7396 66be be46 723e b690 43be
00000230: 3bed d8bd 1871 a33d 5abc b83d a28d 58be
00000240: 547c 963d c36e 283e 11d8 2ebd c780 2b3d
00000250: e1bd d73d 67be 313e d3e8 523e 8ac2 15be
00000260: d40c 93bd 6f54 33bd 4246 f83d cb74 d2bd
00000270: 9844 623e 9dd8 bdbc 8a9f a5bd 5033 dfbb
00000280: 35bc 79be bbe8 b53d e4bc 423e 4fa8 f43d
00000290: e014 42be cc51 433e f74c dc3d 05da f4bc
000002a0: ad07 22bc 8e7e 48bd 4771 373d ea7d 8cbd
000002b0: 529f e0bd cfce 3fbe d1c0 873d 82ce 303e
000002c0: 3a13 5fbe dab6 303e 638d ca3d 00df db3d
000002d0: 4a50 813d a6d9 bfbd c877 bebd 8da9 f23d
000002e0: 3724 a9bd dcd5 9abd b5e5 c7bd 9620 9f3d
000002f0: ab16 f03c a963 31be 737b c5bc 8374 023a
00000300: 0da0 093e b420 ad3d 2060 babb f429 5c3d
00000310: 6410 1fbd 7472 593d 75c9 c2bc 4a04 1bbe
00000320: 65e5 3bbe a536 493e e2a0 edbd 85f4 1ebe
00000330: 259e 43be 5e2c 2c3e 1881 54be 5843 04be
00000340: e80d 233e ef9b 093e 802a 303e e188 433e
00000350: 77e9 003d 63d2 dc3d 832f 55bd e903 f13d
00000360: eeb6 58bd 5baa 283e 65c6 35be 2784 1a3e
00000370: ec86 1c3b 2430 9f3d 39cd 0dbe c285 36bd
00000380: d3f2 433e 4964 363e b0ad 453e f37d be3d
00000390: 2d18 0c3e d945 ef3d a7a4 5e3e fc5a e4bd
000003a0: cb61 32be a59c f1bc 2af6 2a3e 4e4b 113d
000003b0: b24f 373e c19c 34be fbba 273e 1a9c 143e
-0.19533299 0.09102251 0.10530897 -0.07113983 0.047049742 0.13161771 0.16642754 0.09821554
0.10691662 0.061392244 -0.13801658 0.16368482 0.100777805 -0.07085381 -0.18268856 -0.022001157
0.0301423 -0.06400911 -0.07720885 -0.17615066 -4.886567e-05 -0.12342746 -0.06820696 -0.14169729
-0.077453256 -0.22935937 -0.14420803 0.00557534 0.036908522 -0.18344632 -0.053296585 0.16298807
0.0687612 -0.14277078 0.09720788 -0.17832956 -0.18632798 -0.12229385 0.19901597 -0.12505099
0.19502254 0.15944235 -0.07624825 0.19100188 0.20715052 -0.019938434 -0.023151157 -0.091927946
-0.1046893 -0.096957706 -0.15720193 0.12732598 0.11940656 0.03524981 -0.003675654 -0.18087833
-0.1725448 -0.009871687 -0.14282843 -0.08657578 0.10969933 -0.20187268 0.051450465 -0.07152139
-0.12962058 -0.018090857 -0.22466952 0.13392761 0.16564907 -0.0019595386 -0.011225128 -0.03935609
0.13185096 0.19031444 0.09207941 -0.14246 -0.15711726 -0.23767154 -0.14378779 -0.12814893
-0.05512653 -2.543771e-05 -0.06567432 -0.060530674 0.06725153 0.046611685 -0.15509382 -0.086079724
0.17008838 -0.056613453 -0.11503426 -0.17495565 0.20779534 -0.0085601285 0.18333891 -0.06810633
0.12425869 0.15252927 -0.05290178 0.013349238 0.11641895 0.09853238 -0.063483946 0.13003367
0.08348791 -0.01546501 0.014121898 0.11530579 -0.035871644 0.15549214 -0.09831003 0.17749703
0.11555578 -0.15256146 -0.11759314 0.053641647 -0.047479805 0.03464099 -0.21003099 0.073341474
-0.12843582 0.15111847 -0.0803123 -0.10440649 0.15185042 0.1928128 0.056665324 0.027465152
-0.21452883 0.10458787 -0.018938377 -0.12592049 -0.13208367 0.19855924 0.0958518 0.03835039
-0.14545213 -0.2251833 0.23659799 -0.19098172 -0.10592123 0.07980555 0.090203 -0.21147779
0.073479325 0.16448502 -0.042686526 0.04187086 0.105342634 0.17357789 0.20596628 -0.14624992
-0.07180181 -0.043781694 0.121227756 -0.10276183 0.22096479 -0.023174578 -0.0808707 -0.006811537
-0.24388202 0.088822804 0.19017369 0.11946165 -0.18953276 0.19074172 0.107568674 -0.029889116
-0.009889525 -0.048948817 0.044785764 -0.06859954 -0.10967888 -0.18731235 0.06628574 0.17266276
-0.21784678 0.17257252 0.098902486 0.10735893 0.06314142 -0.09367685 -0.0930019 0.118487455
-0.082588606 -0.07560322 -0.0976061 0.07769887 0.029307684 -0.17323174 -0.024106717 0.0004976468
0.13439961 0.08453503 -0.0056877285 0.053750947 -0.03883399 0.053087667 -0.023777703 -0.15138355
-0.18349226 0.19649751 -0.116029516 -0.15522964 -0.19103296 0.168138 -0.2075237 -0.12916315
0.15923274 0.1343839 0.17203712 0.19095184 0.03147265 0.107823156 -0.052047264 0.11768324
-0.05290883 0.16471235 -0.17751463 0.15089475 0.002388413 0.07772854 -0.13847817 -0.044561155
0.19135599 0.17811693 0.19304538 0.09301367 0.13681097 0.11683244 0.21742497 -0.111501664
-0.17420118 -0.02949364 0.16695467 0.035472207 0.17901495 -0.17637922 0.16379921 0.14512673
