gesture-rec-v2/converted_model.tflite (tflite, 2176 bytes, 2 tensors)

sequential/dense/BiasAdd/ReadVariableOp f4 [2]
-0.01625395 0.01625395
00000000: 0127 85bc 0127 853c

sequential/dense/MatMul f4 [2, 120]
-0.19246581 -0.089937486 0.006801214 0.16058412 -0.13765818 0.036589503 -0.036949996 -0.085866265
0.1723971 0.18291587 0.11488465 -0.10815847 -0.07703622 0.14917716 -0.09918021 -0.20901217
0.09514904 -0.12006841 0.1285043 0.21947321 0.15656306 -0.22724947 -0.14550883 -0.019143539
-0.17169166 -0.20012903 -0.18519336 -0.13988177 0.10607115 -0.045480803 -0.1188871 0.19178939
0.122946404 0.12927817 0.048971366 -0.09237312 -0.008762911 0.17409295 -0.15408818 0.12360207
-0.013766032 0.04352019 -0.034341365 -0.08103372 0.16960065 -0.09761224 -0.23318748 0.15532468
0.018222906 0.021369757 -0.021759834 -0.18787472 -0.17051226 -0.20391159 0.10312488 -0.13799648
0.16875406 0.079634085 -0.084786706 0.07674969 0.11304916 -0.07164425 0.02041363 -0.1914793
0.007316405 0.011247041 -0.0057693985 0.13822694 -0.21535112 0.00039769855 0.0019009335 -0.015040151
-0.1117473 0.054712556 0.00930745 -0.07750081 0.018467123 0.17931965 0.06301573 -0.04060623
0.17494147 0.05665208 0.0055782343 -0.014631911 0.042424865 0.060996 -0.14703879 -0.19548702
-0.15339303 -0.023266604 0.113151 0.13903031 0.14401118 -0.14569381 -0.23480119 -0.080524184
-0.0339357 0.09472036 0.052297484 -0.13024014 0.107623234 0.12050825 0.13645042 -0.09730774
-0.09830141 -0.020478202 0.04210163 0.12034929 -0.114378326 -0.03547706 -0.038501035 -0.11226929
-0.09351949 0.045780487 -0.12911794 -0.20431718 0.09608145 0.099317916 -0.021518225 -0.051420912
0.092045724 -0.059163425 0.21661499 -0.070036314 0.21585372 0.043167505 -0.14272964 -0.15707377
-0.026841741 0.20635392 0.092268124 0.080753736 0.14493215 -0.20505303 0.0031730519 0.099930696
0.207218 0.15969992 0.14938062 0.09381692 0.043556012 -0.036302797 -0.025272738 -0.03274109
0.22298267 -0.10963076 0.1775174 -0.04133108 -0.1728645 -0.06356538 -0.10856815 -0.0035897228
-0.025113894 0.09349023 -0.22840331 -0.17785607 0.18839557 0.19463839 -0.19768122 0.027829641
-0.20977388 0.14213242 -0.15901741 0.0103650335 0.06557636 0.13230486 -0.1406059 -0.0007416227
-0.13948666 -0.07912741 -0.0006753372 0.026512515 -0.1362643 -0.0365671 0.12513423 -0.03096626
-0.024107942 0.2106313 0.20420326 -0.20212221 -0.11421105 0.06964874 -0.18120141 0.011023969
0.19939524 -0.029353332 -0.032413002 0.10521697 -0.056827042 0.15621339 -0.018511392 0.15306374
0.06269861 -0.1491082 -0.10126413 -0.032100298 -0.23484464 0.023607234 -0.19680214 0.06685603
0.13501003 0.2171148 -0.04972099 -0.16671379 -0.015891679 0.12996021 -0.12552267 0.0008218192
0.10642278 0.08512089 -0.07064955 -0.1199728 0.11950648 0.15880087 -0.043627553 0.006331696
-0.178657 -0.22998872 -0.13351424 -0.052995823 0.220986 -0.15772328 0.0026910722 0.07688105
0.02675581 -0.00094522495 -0.07417751 -0.07949999 0.21694891 0.03730924 -0.0045136553 0.2179661
0.21497132 0.07151871 -0.13185425 0.04737654 0.0058093625 0.17901054 0.21045777 0.054124154
00000000: c215 45be 2531 b8bd b8dc de3b 2a70 243e
00000010: 44f6 0cbe e0de 153d e158 17bd a7da afbd
00000020: de88 303e 4c4e 3b3e a548 eb3d 3082 ddbd
00000030: 2ac5 9dbd e6c1 183e fe1e cbbd 4907 56be
00000040: 80dd c23d 6de6 f5bd a296 033e 96bd 603e
00000050: 1152 203e 16b4 68be 4400 15be e9d2 9cbc
00000060: f0cf 2fbe a0ee 4cbe 54a3 3dbe 2b3d 0fbe
00000070: d53b d93d 144a 3abd 147b f3bd 7064 443e
00000080: 53cb fb3d 7f61 043e 3396 483d 1e2e bdbd
00000090: 5092 0fbc 6c45 323e 4bc9 1dbe 1523 fd3d
000000a0: ec8a 61bc 3a42 323d 88a9 0cbd 02f5 a5bd
000000b0: cbab 2d3e ede8 c7bd b3c8 6ebe 6f0d 1f3e
000000c0: 3448 953c a10f af3c ae41 b2bc 3b62 40be
000000d0: c49a 2ebe 33ce 50be 2333 d33d f34e 0dbe
000000e0: ddcd 2c3e 3217 a33d a7a4 adbd f12e 9d3d
000000f0: 5186 e73d 38ba 92bd 7c3a a73c 2613 44be
00000100: 74be ef3b 8245 383c 390d bdbb 5d8b 0d3e
00000110: 0185 5cbe 3282 d039 be28 f93a f76a 76bc
00000120: c5db e4bd 461a 603d 467e 183c bfb8 9ebd
00000130: 5d48 973c 929f 373e 640e 813d b852 26bd
00000140: db23 333e 030c 683d 9fc9 b63b afba 6fbc
00000150: b2c5 2d3d f1d6 793d 5691 16be c02d 48be
00000160: 1013 1dbe 9b99 bebc b6bb e73d f65d 0e3e
00000170: ab77 133e c230 15be b96f 70be dde9 a4bd
00000180: 2900 0bbd c0fc c13d e335 563d ac5d 05be
00000190: 9269 dc3d 08cd f63d a9b9 0b3e 4849 c7bd
000001a0: 4052 c9bd e7c1 a7bc c272 2c3d b079 f63d
000001b0: 2f3f eabd 6550 11bd 43b3 1dbd 71ed e5bd
000001c0: 2587 bfbd 5284 3b3d 7e37 04be 8638 51be
000001d0: 5ac6 c43d 3167 cb3d fd46 b0bc bc9e 52bd
000001e0: 7882 bc3d 5955 72bd 52d0 5d3e 336f 8fbd
000001f0: c208 5d3e 69d0 303d b827 12be f2d7 20be
00000200: 36e3 dbbc 714e 533e 12f7 bc3d 3762 a53d
00000210: 1869 143e 6cf9 51be faf2 4f3b 77a8 cc3d
00000220: f530 543e 6088 233e 3cf7 183e 1623 c03d
00000230: ca67 323d 3eb2 14bd c608 cfbc 851b 06bd
00000240: 9255 643e 1886 e0bd 1fc7 353e c74a 29bd
00000250: 6403 31be 912e 82bd fa58 debd 8e41 6bbb
00000260: a7bb cdbc ce77 bf3d 8fe2 69be e71f 36be
00000270: c5ea 403e 494f 473e f26c 4abe fdfa e33c
00000280: f7ce 56be 298b 113e 76d5 22be 1ad2 293c
00000290: e64c 863d ed7a 073e fefa 0fbe 7569 42ba
000002a0: 97d5 0ebe 8d0d a2bd 1d09 31ba c630 d93c
000002b0: de88 0bbe 62c7 15bd 3023 003e f4ac fdbc
000002c0: 057e c5bc bbaf 573e a91a 513e 20f9 4ebe
000002d0: 7ce7 e9bd 00a4 8e3d dd8c 39be e19d 343c
000002e0: 442e 4c3e 6676 f0bc 7fc3 04bd ff7b d73d
000002f0: 79c3 68bd 67f6 1f3e 34a5 97bc bebc 1c3e
00000300: 2168 803d d2af 18be 9163 cfbd 9a7b 03bd
00000310: 1d7b 70be f563 c13c 8086 49be d0eb 883d
00000320: 1240 0a3e 5853 5e3e 3da8 4bbd 05b7 2abe
00000330: 442f 82bc 4a14 053e 0489 00be 5a6f 573a
00000340: 30f4 d93d dc53 ae3d b6b0 90bd 4db4 f5bd
00000350: d0bf f43d b29c 223e ceb2 32bd 1e7a cf3b
00000360: dcf1 36be 2a82 6bbe f5b7 08be 2612 59bd
00000370: 274a 623e 3682 21be b35c 303b d073 9d3d
00000380: 002f db3c f9c8 77ba 61ea 97bd e4d0 a2bd
00000390: db27 5e3e 93d1 183d 49e7 93bb 8132 5f3e
000003a0: 7121 5c3e 6778 923d cd04 07be e70d 423d
000003b0: 775c be3b 8a4e 373e 3e82 573e 4ab1 5d3d
